weights/adapter_model/cola/classifier_head.pt (torch, 4744 bytes, 1 tensors)

classifier.weight f4 [1, 768]
0	0x3cebdbf7	0.02879141
1	0x3c39eeeb	0.011348466
2	0x3c90aa8d	0.01765945
3	0xbb9a42a4	-0.004707651
4	0xba91dfa7	-0.0011129276
5	0xbbbda660	-0.0057876557
6	0x3c45b7a6	0.012067711
7	0xbca44e00	-0.020056725
8	0xbc87d155	-0.01657931
9	0xbd6f92c4	-0.058489576
10	0xbc615601	-0.013753415
11	0xbd05bf5f	-0.03265321
12	0xbb016276	-0.0019742525
13	0xb784322e	-1.5758993e-05
14	0x3c24e0cb	0.01006336
15	0x3c29bc53	0.010359841
16	0xbcf6fd6a	-0.030150134
17	0x3c739e7f	0.014869331
18	0xbc9e8e3e	-0.019354936
19	0x3d0e67d8	0.034767002
20	0x3cba5ac3	0.022748357
21	0x3c992a6f	0.018696992
22	0xbcaaff22	-0.02087361
23	0xbc9f0d2d	-0.019415462
24	0xbcf2fde1	-0.029662075
25	0xbc440d42	-0.0119660515
26	0x3c0b05d7	0.008485279
27	0xbc61ee9f	-0.013789802
28	0xbc1dc095	-0.009628435
29	0x3ad81e49	0.0016488518
30	0xbd447149	-0.0479596
31	0x3b9acdff	0.0047242637
32	0x3c6c9c49	0.014441558
33	0xbbdff0db	-0.006834132
34	0x390371c7	0.00012535519
35	0x3b2f522b	0.0026751857
36	0xba919d58	-0.0011109514
37	0x3cfbe7a5	0.030750105
38	0x3c8068f3	0.015675044
39	0xbcd023dd	-0.025407726
40	0x3c5c85cf	0.013459637
41	0x3c2e5ddf	0.010642498
42	0x3d4f3b80	0.050593853
43	0x3b1546b2	0.0022777733
44	0x3d23f0f1	0.0400247
45	0x3cb1fcd5	0.021727005
46	0x3b7dfbcc	0.003875482
47	0xbb16928f	-0.002297554
48	0xbb1341bc	-0.00224696
49	0x3d5002a6	0.050783776
50	0x3ae9469e	0.0017797535
51	0x3d2fb6f0	0.042899072
52	0x3c8bc010	0.017059356
53	0xbc211d0a	-0.009833584
54	0xbc6720a3	-0.014106902
55	0xbc6d2c9f	-0.0144759705
56	0xbd062b4b	-0.03275613
57	0xbcc1aee0	-0.023642957
58	0x3ca1e092	0.019760404
59	0xbd09f5ae	-0.033681564
60	0x3ca41341	0.020028712
61	0x3c71d617	0.014760516
62	0x3a0ae11c	0.0005297826
63	0xbcbbd231	-0.022927376
64	0xbb1312a5	-0.0022441533
65	0xbcb75e4c	-0.022383831
66	0x3bc6881c	0.006058706
67	0x3cfc0597	0.030764384
68	0xbceffc35	-0.029295066
69	0xbcf0dee0	-0.02940315
70	0x3d37ce01	0.044874195
71	0xbbe898f1	-0.00709831
72	0xbccd1970	-0.025036544
73	0x3c7eedbd	0.015559611
74	0x3cc20695	0.02368478
75	0x3cc99f12	0.024611983
76	0xbc79f64c	-0.015256476
77	0x3d4b1412	0.049579687
78	0x3d00c260	0.03143537
79	0x3bac0a4b	0.0052502505
80	0x3ad0ff0f	0.0015945154
81	0x3d679f0e	0.05654817
82	0x3c00cc1d	0.007861164
83	0xbd0d40e8	-0.034485728
84	0x3c6baa58	0.014383875
85	0x3b03754c	0.0020058928
86	0x3d6ec0f5	0.058289487
87	0xbc8aa46a	-0.016924102
88	0xbc8b4506	-0.017000686
89	0x3c9eda3e	0.019391175
90	0x3c95c6f9	0.018283354
91	0xbb3ef361	-0.0029136764
92	0x3c28d706	0.010305172
93	0xbc68c2b6	-0.014206579
94	0xba513b65	-0.0007981568
95	0xbb987745	-0.00465289
96	0xbcf5cb88	-0.030004278
97	0xbbb99134	-0.0056630615
98	0x3b90782a	0.004408856
99	0xbc6b6db2	-0.014369415
100	0xbbd8c644	-0.006615432
101	0xbb1f83b4	-0.0024339976
102	0xbba99d88	-0.00517625
103	0x3ac617d9	0.0015113308
104	0x3c408b0a	0.0117518995
105	0xbc2e0704	-0.01062179
106	0xbcad4e3b	-0.021155467
107	0xbc5fa838	-0.013650946
108	0xbc51c9d4	-0.012804467
109	0x3c456137	0.012047104
110	0xbbe1926e	-0.006883911
111	0xbc1dd9a9	-0.009634414
112	0x3d7dfd34	0.06200905
113	0xbd00b5a4	-0.031423226
114	0x3cf6e4e1	0.030138435
115	0xbc581e8f	-0.0131908795
116	0xbb04a749	-0.0020241311
117	0x3c8f5e81	0.017501118
118	0xbc1f9412	-0.009739893
119	0x3c6335a9	0.013867774
120	0xbccaf822	-0.024776522
121	0xb8a9ff4d	-8.1061014e-05
122	0x3b616fa4	0.0034398818
123	0x3c1fdb2d	0.009756845
124	0x398e2ac7	0.00027116222
125	0x3b1cecb1	0.002394479
126	0xbbfeaf32	-0.0077723498
127	0xbd009434	-0.031391338
128	0x3c23bd1b	0.009993817
129	0x3cda5225	0.026650498
130	0xbd2f0934	-0.042733386
131	0x3c9cb3ab	0.019128641
132	0xbcde2191	-0.027115615
133	0x3c156abd	0.009119687
134	0xbc5689f5	-0.013094415
135	0x3c5513da	0.013005221
136	0x3bd36cfa	0.0064522
137	0x3a8fec92	0.0010980538
138	0x3cb81d77	0.022474987
139	0x3d5beeaf	0.053694423
140	0xbcedba7a	-0.029019583
141	0xbaaa3020	-0.0012984313
142	0xbc16097c	-0.009157535
143	0xbc8f9b02	-0.017529968
144	0xbbe049eb	-0.006844749
145	0x3c72cc6f	0.014819249
146	0x3cc50014	0.024047889
147	0xbb5d12c1	-0.0033733102
148	0x3c483c0a	0.012221346
149	0x3d1c1335	0.038104255
150	0xbc982f31	-0.01857719
151	0x3b8e5ed9	0.004344803
152	0xbc84a239	-0.016190635
153	0x3cd9fa7c	0.026608698
154	0xbaec1a0c	-0.0018013134
155	0xbd042021	-0.032257203
156	0xbca11ed1	-0.019668015
157	0xba2f972e	-0.0006698248
158	0xbd2cbd14	-0.042172506
159	0xbaab5c37	-0.0013073747
160	0xbc2e36e3	-0.010633203
161	0x3c665c97	0.014060161
162	0xbb935c20	-0.004497066
163	0x3c913773	0.017726636
164	0xbd1fda09	-0.039026294
165	0x3cd484b2	0.02594218
166	0x3c73a9e8	0.014872052
167	0xbc33d2bf	-0.010975539
168	0x3b73b95f	0.0037189347
169	0xbd07e44e	-0.033176713
170	0x3cbf1afe	0.0233283
171	0x3b441853	0.0029921725
172	0x3c38d6e0	0.011281699
173	0x3c9a796a	0.018856723
174	0xbc693d60	-0.014235824
175	0xbc4d9c9b	-0.012549545
176	0x3c1e0da6	0.009646809
177	0x3c9b0faf	0.018928377
178	0xbc9a1f61	-0.01881379
179	0x3c1517ec	0.009099942
180	0xba37ca92	-0.00070110813
181	0xbb6ceb03	-0.003615082
182	0xbd13a48d	-0.0360456
183	0x3c2ca4fa	0.01053738
184	0x3d05dfeb	0.032684248
185	0xbd0adde6	-0.033903025
186	0x3c1e9391	0.009678737
187	0xbc891c9e	-0.016737279
188	0x3b8e7458	0.0043473653
189	0xbce0ece2	-0.027456705
190	0x3c33b5c9	0.010968634
191	0xbc7b2aa5	-0.0153299915
192	0x3d1550b5	0.03645392
193	0xbd584c21	-0.052806977
194	0xb907c0d4	-0.00012946437
195	0x3d2f0641	0.042730574
196	0x390c8768	0.00013401883
197	0x3bf9f3d0	0.0076279417
198	0x3ae1d608	0.0017229924
199	0x3baf5feb	0.0053520105
200	0xbc83cd10	-0.016088992
201	0xbc88fd12	-0.016722236
202	0x3cddaf71	0.027061196
203	0x3c3d48f7	0.011553041
204	0xb99a8a38	-0.0002947615
205	0x3d0bff15	0.034178812
206	0xbcc1ec52	-0.023672257
207	0xbc3393d3	-0.010960537
208	0xba9d53f1	-0.0012003166
209	0x3cb1237b	0.021623364
210	0xbd05f8a1	-0.032707814
211	0x3b787715	0.0037912775
212	0xbc85ec72	-0.016348097
213	0xbd16c4ba	-0.036808707
214	0xbcc453d8	-0.023965761
215	0x3cb450ce	0.022011187
216	0xbcee4f5b	-0.029090574
217	0x3c26c76a	0.01017938
218	0xbcf7205a	-0.030166794
219	0xbb9c3841	-0.004767448
220	0xbc4957ee	-0.0122890305
221	0xbc8c0f2b	-0.017097076
222	0x3d159cb1	0.036526386
223	0x3cc6fb74	0.024289824
224	0xbc00699c	-0.007837679
225	0xbc2d9993	-0.010595697
226	0x3cd5feb3	0.026122427
227	0xbcdf0535	-0.027224163
228	0xbc97f69a	-0.018550206
229	0x3d28e1ec	0.04123108
230	0xbbd10c7e	-0.006379663
231	0x3c8edea3	0.017440146
232	0xbc8db7c5	-0.017299542
233	0xbd2a460e	-0.041570716
234	0x3ca4a2f8	0.02009724
235	0xbbcbf22b	-0.006223937
236	0x3acb5c95	0.0015515262
237	0xbc6b0893	-0.014345306
238	0xbc92eeb3	-0.017936086
239	0x3c361ff9	0.011116021
240	0x3c0fe827	0.008783377
241	0x3a233044	0.00062251487
242	0x3c292849	0.010324546
243	0xbcc00692	-0.023440633
244	0x3c91dfde	0.017806944
245	0x3c9e137b	0.019296398
246	0xbc9b542f	-0.01896104
247	0xbd87395f	-0.066027395
248	0xbc5c0678	-0.013429277
249	0x3a3fe012	0.0007319461
250	0x3ca41873	0.02003119
251	0x3bd3de81	0.0064657335
252	0x3b81c832	0.0039606327
253	0xbc924c5a	-0.017858673
254	0xbcf04125	-0.029327938
255	0xbc13225f	-0.008980363
