weights/adapter_model/sst2/classifier_head.pt (torch, 7816 bytes, 2 tensors)

classifier.weight f4 [2, 768]
000000 80 3a 37 bb 07 2d c2 3b 51 dc 78 bc 36 98 54 ba
       -0.0027958453 0.005925778 -0.015189246 -0.00081098394
000010 f6 46 e3 bb 50 23 67 3c 9e 69 10 3c d5 d9 8e 3d
       -0.0069359494 0.01410754 0.008814244 0.06975142
000020 e1 6d 8d 3c 4a 86 21 3c 9b c8 b8 3b 29 2c 88 bc
       0.017264308 0.009858677 0.0056391484 -0.01662262
000030 fa 2b 06 bd 16 fd 28 ba ea f8 21 3c 91 6a 27 ba
       -0.032756783 -0.0006446404 0.009886006 -0.0006386424
000040 17 7e 57 bc 13 e0 ea 3a 36 01 4b 3c 65 65 8d bb
       -0.013152621 0.0017919563 0.012390425 -0.0043150657
000050 6d 7a cd bc 14 db 5f bc 45 a4 17 bc 35 48 ca 3c
       -0.025082791 -0.013663072 -0.0092554735 0.024692634
000060 23 a5 0e bd 34 d1 eb ba 08 2c c4 3c 4c 74 4b bd
       -0.034825455 -0.0017991425 0.023946777 -0.049671456
000070 96 a0 1b bc 94 3c c6 bb 8b b0 c5 bb e4 f3 34 3c
       -0.009498736 -0.006049702 -0.0060330085 0.011044476
000080 bf e2 3b 3b a5 18 20 bc b1 71 c9 3c f1 13 de 3c
       0.0028669087 -0.009771501 0.024590345 0.027109118
000090 4f 03 b2 bc 11 e2 83 3c 40 d8 bb bc 15 d8 b0 bc
       -0.021730093 0.016099008 -0.022930264 -0.021587411
0000a0 27 ad 07 3d f1 a5 80 3c d0 6c a9 bb 21 c1 b9 bb
       0.033124115 0.015704127 -0.005170442 -0.0056687747
0000b0 92 14 ec bc 86 0a 60 3b 23 2d b1 bb 09 3b 1b bd
       -0.028818402 0.003418596 -0.005406992 -0.037898097
0000c0 47 ae 0f bc a9 1c 0c bd 81 ff b7 3c a1 8c 3e bd
       -0.008769578 -0.03420702 0.022460701 -0.046520833
0000d0 c7 50 1d 3c 69 62 e0 3b ae f1 c1 3c d4 0a d7 3c
       0.009601778 0.006847669 0.023674812 0.02625028
0000e0 bf 26 b8 bc 53 f7 62 bd 7f cf ad 3c c3 5d dc 3b
       -0.022479413 -0.055411648 0.021217106 0.0067250445
0000f0 85 32 0a 3b fc bf dd 3c f5 80 e4 3b 37 fc 02 3d
       0.002108724 0.027069084 0.0069733807 0.031978812
000100 90 7e 7d bc 89 28 30 bc 60 43 c8 bb 54 77 c6 3c
       -0.015472069 -0.010751852 -0.0061115474 0.024226822
000110 8e a0 a1 3c 2c 1d ab bb 04 02 a8 3b 98 47 dd bc
       0.019729879 -0.0052219834 0.0051271934 -0.027011678
000120 c0 73 b4 3c 64 0f a6 3c 8b 36 1e bc df 90 07 bb
       0.02202785 0.02027101 -0.009656559 -0.0020685715
000130 b4 68 1a bd df 36 3c 3a 7e ed ad bc 41 36 1a bc
       -0.03769751 0.0007179807 -0.02123141 -0.009412349
000140 fe f1 22 bd 35 f5 08 3c db 46 a7 bc 5c 33 45 bc
       -0.039781563 0.008359243 -0.020419529 -0.012036171
000150 4a aa 83 bb 8e 4a cb bc a1 c8 a8 3b 19 5c 06 3c
       -0.004018103 -0.024815824 0.00515087 0.008200669
000160 ad bf 5e bb 1e ff 51 bd e8 10 38 3b a8 e4 a3 bc
       -0.003398876 -0.05126869 0.0028086249 -0.020006493
000170 cc 10 dc 3c 15 04 e9 bb 63 9f 22 bd f2 c6 70 3c
       0.026863478 -0.0071110823 -0.039702784 0.01469587
000180 4e d6 fe 3b be 1d be 3c 7e 98 e0 3b 1b d8 ca 3c
       0.007777012 0.023207542 0.006854116 0.02476125
000190 72 8c 70 bb b8 4d 79 3c e1 66 a7 3c ea 74 8c 3d
       -0.0036704806 0.0152162835 0.020434799 0.06858237
0001a0 45 6c 42 bc db 83 c7 bc 43 f1 24 bd fe 18 dc bc
       -0.011866634 -0.024354866 -0.040269148 -0.026867386
0001b0 10 99 2e bb 70 1e c9 3c f6 ce 72 bb 49 e9 c3 bc
       -0.0026641525 0.024550647 -0.0037049628 -0.02391495
0001c0 ff 65 17 bd 08 a6 19 3c 9a 53 c7 ba ec 59 02 3d
       -0.036962505 0.009377964 -0.001520741 0.031824037
0001d0 43 be a2 3b d9 a3 ea 3c d4 6d 89 bc 78 be d2 bb
       0.0049665286 0.028642582 -0.016776003 -0.006431397
0001e0 be 05 03 bc d6 c3 3b bd 18 d2 78 3b 5c e9 77 bc
       -0.0079969745 -0.04584106 0.0037967023 -0.015131321
0001f0 3b d4 63 bc 48 fd 88 bb 93 47 5b bb 1e 0f 55 3c
       -0.01390558 -0.004180584 -0.003345941 0.0130040925
000200 b0 84 54 3a 4c f8 f9 3c 9e c8 54 bc a8 39 31 3c
       0.000810693 0.030513905 -0.012987284 0.010816969
000210 ac 10 44 bc a9 3c d5 3b 14 b8 01 bd d1 09 fd bc
       -0.0119668655 0.0065074754 -0.03166969 -0.03088847
000220 93 e7 d6 bb 51 f1 b9 ba 75 2d ec 3c e9 69 fe 3b
       -0.0065583675 -0.0014186298 0.02883027 0.0077640903
000230 e7 d6 42 3c 26 c3 fb bb 8f ee 80 3c f2 d2 be bc
       0.011892057 -0.0076831756 0.015738754 -0.023293946
000240 c4 68 6c bc 08 86 a7 bc b2 ea 3f ba 5d 5f 57 bc
       -0.014429275 -0.020449653 -0.0007321044 -0.013145295
000250 7e ec c0 bb 4b 50 5a bd 6f a7 c9 3c 7a 32 da 3c
       -0.005887567 -0.05329923 0.024615971 0.026635397
000260 17 f4 1d bd 96 74 6c 3c c0 d5 56 3b 11 e5 fb bc
       -0.03856286 0.014432093 0.0032781214 -0.030748876
000270 f7 49 f4 bc 88 e9 13 3c 00 3b a6 bc 3b 84 80 3c
       -0.029820425 0.009027846 -0.020291805 0.015688052
000280 96 7d af 3c 15 ed 37 bd 45 8c 1a bb 77 7e 5b bc
       0.021422189 -0.044903833 -0.0023582142 -0.013396851
000290 da 2e ad bc 01 54 11 bc 84 02 89 bc 36 88 36 bd
       -0.021140505 -0.008870126 -0.016724832 -0.044563495
0002a0 57 c5 b8 3c 26 38 7d 3b 8f fb db 3c ba 88 ee 3c
       0.022555036 0.0038638203 0.02685335 0.02911793
0002b0 df 79 64 3c 49 12 c4 3b eb 44 e5 3b dc 0a 30 3a
       0.013945072 0.005983625 0.006996741 0.00067154854
0002c0 ca 65 3b 3c ae 77 67 bc a4 1e 83 3c 24 69 bc 3c
       0.011437843 -0.014127655 0.016005822 0.022999354
0002d0 a9 1c 61 3b 0e 53 e2 bb 6e 7e 79 3d e5 f0 2d bd
       0.0034349358 -0.0069068735 0.06091159 -0.042466063
0002e0 46 7c 2e 3d 8e 56 9d bc 0a 10 91 3c 69 4a f9 3c
       0.042598985 -0.019206312 0.017707843 0.03043099
0002f0 13 85 46 3c 24 fe 12 bc d7 5c 33 bc df a7 c6 3a
       0.012116688 -0.008971725 -0.010947428 0.0015156231
000300 54 a2 22 bd ae 57 34 bd 96 c3 b7 3c 6d 47 a6 bc
       -0.03970559 -0.04402893 0.02243213 -0.02029773
000310 3b cd 8d bc 18 82 db ba 02 fb 7e bc b8 da bf 3c
       -0.017309776 -0.0016747145 -0.015562775 0.023419723
000320 30 35 18 3c 04 ec a2 bc c8 53 c8 bc 27 48 c5 bb
       0.009290025 -0.019887932 -0.024454013 -0.006020564
000330 58 e9 b5 3a 6d 45 72 bd f1 a6 6c 3b 20 ae cb 3c
       0.0013878746 -0.05914824 0.0036110247 0.024863303
000340 8a 72 a9 bc 9e 8c 44 bc 08 eb c0 39 4f c3 d2 3b
       -0.0206845 -0.011996416 0.00036796206 0.006431974
000350 ae f5 5a b8 85 67 d3 3b 68 cd 92 3c 70 e7 e0 3b
       -5.2204057e-05 0.0064515495 0.017920211 0.006863527
000360 a2 26 09 bd 48 8e 1f ba f0 75 18 3d 6b db 3a 3d
       -0.03348411 -0.000608657 0.03722185 0.04561941
000370 76 12 94 3b f5 a9 44 3d 43 53 09 bd 79 2e 8c bc
       0.0045188023 0.048013646 -0.03352667 -0.017112004
000380 46 aa a4 3b a7 42 3f 3c dc 20 9b bc d0 c7 2c 3c
       0.005025181 0.011673606 -0.018936567 0.010545686
000390 a7 9a 44 bb ff 0f 0e bd 22 63 67 bb 68 86 e3 3b
       -0.0029999407 -0.034683224 -0.003530689 0.0069435127
0003a0 0f 3a e9 bc 41 99 d5 3b a6 b9 6f 3b 83 7e 42 3c
       -0.028470067 0.0065185134 0.003657916 0.011870983
0003b0 1c f3 92 3a 1e 15 27 bb f7 21 45 3c cf da 90 bc
       0.0011211368 -0.0025494765 0.012032024 -0.017682461
0003c0 7c 12 23 3d ef 9b 0c 3d 66 71 48 bb 16 b8 0e bd
       0.03981255 0.034328397 -0.003058517 -0.034843527
0003d0 b8 e9 b7 3c ad b6 93 3c 50 58 e4 bc a6 6b 62 3b
       0.022450313 0.018031443 -0.027874142 0.0034549027
0003e0 37 54 37 3d 03 80 9a bc 6e 4d d9 bb 5e bd 23 bb
       0.044758048 -0.018859869 -0.006631545 -0.0024984698
0003f0 02 f2 3d bd e3 6c 03 3c 83 17 73 bb 65 fc 71 b8
       -0.046373375 0.008021566 -0.0037092871 -5.769394e-05

classifier.bias f4 [2]
000000 a8 21 a3 bb a0 20 a3 3b
       -0.0049783774 0.0049782544
